pre-trained_models/lsrf_weights_N2HAS_f-5_img-size_80.npz (npz, 320369 bytes, 1 tensors)

data f8 [38400]
00000000: c0a5 ea05 58c5 df3f 00b9 7285 e649 d03f
00000010: 00dd 3369 dde9 c63f 808f d8f3 613d cf3f
00000020: 8035 7c1c 930e d9bf b02a c544 d5a4 a83f
00000030: c093 6d82 a4ee dc3f 0068 4bcb b0ba d43f
00000040: 803a 3ff0 acfb d03f 009a 55df 386f c6bf
00000050: c0f6 56fc 3c0c c0bf a0e8 b13c 284e a43f
00000060: c00d 39ee a9e9 d43f 202a 6bb1 b2cc d33f
00000070: c067 e424 6f16 d73f e0c2 335e 82c8 e0bf
00000080: e0ef 65c6 2816 ce3f c4ef 8e5f 75ae a13f
00000090: 60ea f6e6 f402 f23f 003a 118b 4b7b cebf
000000a0: 405f de65 dac7 e4bf 0030 5c9a a993 b93f
000000b0: 40aa 58e9 72f3 d63f e42d b8ee 36af a33f
000000c0: a0df a8df 3d5d e43f 00ff fe1b 67b0 d6bf
000000d0: 80ae 485c f667 c4bf 80c0 96e6 7ae3 d93f
000000e0: 6078 8992 ffce c23f 600d c08a eb60 a43f
000000f0: e051 9fa0 de51 df3f 0040 30c8 dcfc 72bf
00000100: 00b0 2edd 08c0 783f 0027 1849 58db d3bf
00000110: 0043 1ce0 8442 de3f f49c e619 d7f9 a23f
00000120: 007c d5f7 1b59 df3f 008a cb34 0b3b aa3f
00000130: 8092 097f 051e d1bf 0094 dca2 cb81 a9bf
00000140: 20ae 8a20 c5ed dc3f 8809 5120 3b40 9e3f
00000150: 0028 4b05 b21a c53f 008f e143 25fa dc3f
00000160: 002c ae37 0802 a83f 002d 16e0 1f8e c2bf
00000170: 80b9 cac8 f1e4 c53f d82a 9bee 5789 993f
00000180: 00e8 5f23 c01a d63f 00fb 8717 593f df3f
00000190: 00d8 688c b01f 91bf 0028 f3fa 4ee4 9d3f
000001a0: 8061 0139 66f1 babf a073 b57a de9e 953f
000001b0: 0086 d6db af9a cd3f 40fc 6daa af07 e33f
000001c0: 008c 68ed 3d01 a6bf 00cb 3bd2 02a4 c0bf
000001d0: 802a 81a1 1d4b c13f a0c5 6c95 baed 8e3f
000001e0: 8002 0164 0b2d e23f 00cf f4d1 cc4c d63f
000001f0: 20bd 4649 4ad8 cdbf 0020 4249 6b3d 92bf
00000200: 009a 6332 2e75 c13f a0a8 85e2 a282 903f
00000210: 80e5 b0af b8a5 ed3f 0040 63fc 70c7 bbbf
00000220: 0094 fb4d b796 c2bf 0010 c017 3805 913f
00000230: 0044 2ca6 b531 b43f 402e bf84 dd3e 923f
00000240: 0080 15ef a4f8 ed3f 00b8 b1ba 61b8 a1bf
00000250: 00b2 bb4f 6de2 c6bf 0000 42f8 5e01 373f
00000260: 00fc 7f8b 457f b03f 4059 c13d 414f 913f
00000270: 807b 85ea 6e12 df3f 8094 15ef 8f88 e03f
00000280: d2b1 6746 d510 cdbf 0090 d70a c6ef 96bf
00000290: 0058 4c6e 5628 b23f 0075 6275 58fa 8d3f
000002a0: 20a2 992a 17c6 f03f 006e 05e5 7c45 c0bf
000002b0: 0040 b3ea 0e7b 89bf 006c 7c43 cbce c3bf
000002c0: 00c4 374f bb9e b03f 8047 9a51 9479 903f
000002d0: c0ac 97bd cb68 e13f 00f2 fee0 d1b8 e23f
000002e0: 00ea 03e0 2733 bfbf 80ea c97a a064 bbbf
000002f0: 8048 af55 b095 a6bf c03d 518e 07b3 8a3f
00000300: 0076 089e ed29 eb3f 008c 4317 0a8a d13f
00000310: 007c 7793 8885 bf3f 0058 8bcf c3e8 bebf
00000320: 0094 d614 62c4 d1bf 402e 2ca7 4762 803f
00000330: 80b0 bd8e 26f7 e63f 00e3 b3f7 055a db3f
00000340: 00b0 e9ee 4b9e b0bf 00a0 efa2 b2d3 cebf
00000350: 0020 86b2 a489 9b3f 005d 84f3 87d6 813f
00000360: 4045 7ff8 06b3 f13f 0000 6bd9 c725 bcbf
00000370: 0010 2287 42dc c7bf 0000 0232 ee62 623f
00000380: 0008 0c78 36e3 a13f 0010 2364 9a99 7d3f
00000390: c093 8846 dd2d f23f 00a0 9694 07cf bcbf
000003a0: 00a0 5ab4 398f b0bf 0010 7397 1e07 c5bf
000003b0: 00f8 3d15 3bd7 a63f 405c b5e1 7142 913f
000003c0: 8082 1455 9824 f13f 00a0 5801 8c6c b43f
000003d0: 00c8 61e1 8fa3 b9bf 000c 36bf 2c32 d3bf
000003e0: 0064 382b 7175 b73f c01b fc34 de36 903f
000003f0: a00b 08ee ffa5 f03f 00ec 44e8 4f8e c53f
00000400: 00a4 3149 5ec8 ccbf 00de 03f8 bda6 cebf
00000410: 00b0 f853 ff36 ba3f a05b fad2 28ea 863f
00000420: 00e3 1058 abdf e73f 0017 3041 20bf d83f
00000430: 0030 d6aa 35a2 bf3f 006e 1e84 8c15 d3bf
00000440: 007c c7ac a42f babf 0008 5739 48ae 783f
00000450: 90f0 e56c 56eb f13f 007c 3bc9 55b1 cabf
00000460: 00b8 e460 d94a d7bf 0072 ad38 bc08 cf3f
00000470: 0008 5fb3 5c42 b33f 0070 8e23 8890 60bf
00000480: 800d f157 8e96 f13f 0074 69ec 2d7c d6bf
00000490: 0050 a5df 7e17 c93f 00b8 ef8d f7e1 c0bf
000004a0: 00b8 eee0 22a3 ab3f 00e8 8ac3 fa0f 563f
000004b0: e0ec e9b0 7742 f03f 00b0 1e0b efcf 97bf
000004c0: 0058 47a0 45cb d6bf 00b8 7a8e cb1f cb3f
000004d0: 0080 2695 001d 943f 0040 fff7 8142 4fbf
000004e0: a07f 9e6d 10b3 f03f 0010 2c2b 2e31 cebf
000004f0: 0050 54b6 c14d aa3f 0050 01c2 7bf5 a7bf
00000500: 0078 95f7 4c5d ae3f 0090 1406 cc66 5cbf
00000510: 804d f229 4229 f03f 000c 8f1c a166 c23f
00000520: 00a0 6609 3939 a1bf 0047 630e e239 d2bf
00000530: 0020 2827 cdd4 a13f 0018 3ff1 d8d8 52bf
00000540: 0094 69e6 824a e73f 0098 e3b6 bc37 d53f
00000550: 00b0 a501 62bf aabf 0088 b86c 372c cfbf
00000560: 0072 a3df 7497 b83f 0028 1217 88b9 753f
00000570: 4055 ffa5 3d79 ef3f 0004 4935 061d c83f
00000580: 0090 cd01 638e bdbf 0078 6255 db0b cbbf
00000590: 0000 5782 6681 623f 8068 74c6 0b39 893f
000005a0: c0fb 540b 99a3 ee3f 00c4 9d9c 35c3 c43f
000005b0: 00ac 4b29 c88f c5bf 000c 0fb0 4181 c0bf
000005c0: 00f0 f915 d1f3 9e3f c028 c9a4 5709 813f
000005d0: 4032 5b72 48c5 ef3f 0080 233c 96d0 8c3f
000005e0: 0058 e1bc cc70 b3bf 002c 57bb 2e6c c4bf
000005f0: 0078 d65f c65c b63f 0064 8e20 97b2 723f
00000600: 00be 4652 515b e73f 009c 896a f515 d13f
00000610: 0088 3b92 1904 c53f 0080 1f1b 0eaf 83bf
00000620: 005a 80a9 78da d2bf c033 44d6 4e9b 813f
00000630: a078 f7a3 14a2 ef3f 00e8 e687 f39a c03f
00000640: 0038 8f29 e9cd c7bf 0088 c9a0 149b cdbf
00000650: 00f3 dccd 4f44 c43f 0070 b463 4a3a 723f
00000660: 604a 436d f8b6 ee3f 0038 30ea 18d3 b53f
00000670: 0004 1c53 1005 c1bf 00d8 97ad 1960 c8bf
00000680: 00dc b08a ab97 c03f 00a2 df59 9225 813f
00000690: c062 2545 fbc3 ee3f 0078 4446 889b b73f
000006a0: 0028 19ed 9136 b2bf 0074 d931 7d53 cdbf
000006b0: 00f4 1021 27f2 b73f 0086 9385 5285 863f
000006c0: 00ab 2c61 a3a6 ed3f 0018 bece 6c8b cb3f
000006d0: 0074 8662 5956 c1bf 00c8 1bfa c718 cbbf
000006e0: 00c6 7887 6ad8 a63f c0a5 1806 4cd9 903f
000006f0: 80e6 4dfd 14d5 ed3f 00d8 40b8 286d c03f
00000700: 00a0 6d28 2f20 90bf 009e b603 72bc d2bf
00000710: 0068 5a3a af83 b63f 006a 62d1 9187 903f
00000720: 40f5 ea3c aa8b ec3f 0018 76af 80f5 cb3f
00000730: 0000 d576 a62b c8bf 00da eaaf 7a48 c5bf
00000740: 0002 896f c5ae b53f 0037 4d5f be86 8e3f
00000750: e0ad 15fa 35a4 ec3f 0010 fc49 45ef b83f
00000760: 0080 09c8 6521 a43f 00a0 f144 7439 d2bf
00000770: 005e 8784 e036 b73f 009f d8fb 9950 8f3f
00000780: 80f3 7d2f c0b7 ec3f 0084 3fad 7f01 cb3f
00000790: 00ac 3314 c785 c7bf 0098 02bb ccde c6bf
000007a0: 0060 1e15 79ef b73f 0072 dd3a 3966 8d3f
000007b0: e0aa db59 4676 ec3f 0000 62fa cadf a03f
000007c0: 0016 02cc 87b8 d2bf 0004 76bf b90e c03f
000007d0: 007c d2ef b111 b53f 00c5 76d7 c30a 913f
000007e0: a0e0 06ca e2ec ea3f 0050 a583 b2d6 bfbf
000007f0: 0080 d940 cddd 8dbf 0088 0b36 47d2 ba3f
0.4964199121264663 0.2545105269627044 0.17901198994488965 0.24406074911632558 -0.39151456624752967 0.04813257660369652 0.4520655893050467 0.32389469006523086
0.2653610559617974 -0.17526923089026525 -0.1253734809997038 0.039658791932155824 0.3267617060084511 0.30936877561603815 0.3607442722583265 -0.524476226795823
0.23505124747668926 0.03453413764461247 1.1257218381930656 -0.23813766756434518 -0.6493961324331181 0.0999094011169177 0.358608940007489 0.03844615615897931
0.6363820427277354 -0.35451677068702736 -0.15942267900515006 0.40450928228802496 0.14694208769919026 0.03980194157341077 0.48937192617202463 -0.004635679654725777
0.00604251348969953 -0.3102627481281246 0.47281000028401365 0.037062379752848346 0.4898137970212133 0.0512317182490456 -0.2674573650931862 -0.049818385725565406
0.45201233079817094 0.02954189667458132 0.1648771787498049 0.45276767376911664 0.0468905036896885 -0.14496229593019194 0.17104933075229312 0.02493798631511876
0.3453827233748825 0.4882414560124033 -0.01672244889251573 0.02919124037433818 -0.10524596111043216 0.021113849868345747 0.23128317102695917 0.5946882561401097
-0.04297822497417059 -0.1300052191287122 0.13510485063519084 0.01510186928280427 0.5679985955431022 0.3484375048021633 -0.2331631524843738 -0.017812420221645198
0.1363885637321829 0.016123337817966488 0.9264796668496018 -0.1085119835072419 -0.14522448833227486 0.016621471833801138 0.07888350779491304 0.01781793711397328
0.9366020841225691 -0.0346098461530886 -0.17878500359746852 0.000351033864951944 0.06444201141128758 0.01690389575409168 0.48550007727128985 0.5166701955428294
-0.22707620561358383 -0.022399038707490604 0.07092800324275572 0.014637652475637086 1.0483619369571286 -0.12712060148884063 -0.012441746270638987 -0.15474835200515713
0.06492205318478739 0.0160887884908969 0.5440424635866279 0.5850610155535492 -0.12187432498095774 -0.10700419423839413 -0.04411078496890841 0.013036784201317597
0.8488681875784891 0.27405025741444433 0.12313130951177698 -0.12073921029090684 -0.2776112750528341 0.007999954022600453 0.7176697528752953 0.4273695868464955
-0.06491541464646389 -0.24083550411091892 0.026892255207286553 0.008709966773081224 1.106207819644922 -0.10995148714118841 -0.18640929792684346 0.0022444393399041473
0.034936620859312484 0.007226565447300715 1.1361973529067058 -0.11253402116437883 -0.06468544629262851 -0.16427976984971338 0.04461083063414151 0.01685502948870643
1.0714343379442255 0.07978129418245317 -0.10015200855721673 -0.2999374263092136 0.09163577370817677 0.015834304794249965 1.0405272768118508 0.16840552178641133
-0.22486475538178752 -0.23946356401550872 0.10240169334491611 0.011188811243568797 0.7460533828771929 0.38666540494919843 0.12356887265030991 -0.2981902399276066
-0.10228947847598135 0.006025583386362499 1.1199554685436262 -0.208536837823857 -0.36394342863320617 0.24245407836396282 0.07523135546855997 -0.002022043129228379
1.0992568431109646 -0.3513293083868234 0.19602952881052715 -0.13189596586693142 0.05397900577314374 0.0013465832582100212 1.016227427548806 -0.023254141858771504
-0.356156736871867 0.2119078107547807 0.019641884902398488 -0.0009539732563954573 1.0437168390271623 -0.2358758650590289 0.051374486453056534 -0.04679476493097923
0.059305577490462724 -0.0017334930819936645 1.010072864392754 0.14375699896308447 -0.03363970031506369 -0.28478289990481187 0.034826670675158766 -0.001150333268911563
0.7278456211321327 0.3315269266153109 -0.05224138517482402 -0.2435368805755047 0.09606104335711763 0.005303889848741861 0.9835499040733922 0.18838574983422518
-0.11545389932649641 -0.21129933995410966 0.0022589685565606032 0.01231583785424939 0.9574704381301373 0.162207318756856 -0.16845037475954427 -0.12894459816570247
0.030226962057426476 0.00831860038410459 0.992832396842978 0.014069722852980249 -0.07593993769964413 -0.15955146930204478 0.08735313262738487 0.0045648482709106375
0.7298971754989338 0.2669652500539428 0.16418761863957343 -0.009611234858255102 -0.29458443215244756 0.008597007669345902 0.9885352327799133 0.12972873817290065
-0.1859713986327165 -0.2312951836675552 0.1583347087088427 0.004450121482729941 0.9598352560081587 0.08525233952988742 -0.13296703394010478 -0.19043274856784365
0.12962860366835116 0.008372443549846231 0.9614235258587414 0.09221698489679397 -0.07114517248660945 -0.22911038335851686 0.09353870923310126 0.010996479703353934
0.9265915773333688 0.2151924142346502 -0.13544766722489499 -0.21169376098947623 0.04461987403591294 0.016453922149741507 0.9322609851216868 0.128331270186834
-0.015747773020308387 -0.29275179255134276 0.08794684576642453 0.01614215698701038 0.892048949222648 0.21842964713522406 -0.18883209993691707 -0.16627439107624298
0.08469804738070508 0.014905440600752495 0.895045269438409 0.0974009805323135 0.03931730334147687 -0.2847567246703875 0.09068110690656539 0.015290453909144741
0.8974305083826124 0.2109832378328349 -0.18377006994646194 -0.1786743081221971 0.09349781766502474 0.014355132206838483 0.8894378428497838 0.03295740419798676
-0.29251284525557253 0.12544938896829194 0.082301255274146 0.01664262774074121 0.841416735252114 -0.12436977113731018 -0.014583209554245968 0.10477109021624642
