pre-trained_models/omp_weights_N2HAS_f-5_img-size_80.npz (npz, 341388 bytes, 1 tensors)

data f8 [38400]
000000 93 3d 0a 31 60 10 e7 3f b0 bd 4a c2 5f c4 cc 3f
       0.7207489927113094 0.2247428606692501
000010 49 66 dd 6f f8 cf dc bf 30 37 b0 65 bc 3f d7 3f
       -0.45019350933361985 0.36326513224126966
000020 f0 12 65 37 21 d2 d1 bf b8 ad 76 9f 71 4c b4 3f
       -0.27845030221605693 0.07929144042161951
000030 ed ce 43 60 5f 47 e5 3f 50 b9 a3 88 3b 97 c9 3f
       0.664962471024834 0.19992775127270557
000040 48 ee 5e 78 b9 84 c1 bf d0 a5 ab e0 e1 73 b7 3f
       -0.13686293008309947 0.09161197409743882
000050 71 a0 9a 9c 9d 6a c6 bf 34 6a 6f ad 22 77 b5 3f
       -0.17512865206413467 0.08384911283739244
000060 f0 67 c3 6a 15 a4 e5 3f 40 f4 be cc a7 bc cc 3f
       0.6762797436924739 0.22450730798110108
000070 88 19 57 c4 e9 e0 d4 bf c0 8f 15 3b ab d7 cc 3f
       -0.32622760938502227 0.22533169159862432
000080 da c7 8d 2c a6 c0 d0 bf 00 f8 97 58 27 19 65 3f
       -0.2617583689781192 0.00257547077921938
000090 c0 21 cb c7 53 06 e1 3f d0 f8 c2 5a 08 88 d1 3f
       0.5320223715034942 0.27392777312696825
0000a0 24 e9 6a 0c 41 5d d8 bf 50 ec 60 ee d3 ba ca 3f
       -0.3806917783037014 0.20882653369503368
0000b0 80 bc 76 ed 8c bc c1 bf 20 95 a4 03 1c 5f 85 3f
       -0.13856660456574232 0.010435313092396259
0000c0 7c 5f 37 d3 d6 5a d3 3f 48 c9 d8 1f 94 e4 d1 3f
       0.3024193823489367 0.27957633123437065
0000d0 f0 7e 14 9e 35 a6 d6 3f 70 93 08 99 01 c0 cc bf
       0.35389461934572264 -0.22460956547106603
0000e0 80 cb b2 a5 44 be a5 bf 50 9d eb c1 ae 21 a6 3f
       -0.04246725580869448 0.04322572819892889
0000f0 a8 a0 8d bb 84 d5 d3 3f 58 0a 8c 0e 4b 13 cc 3f
       0.30990713420625093 0.21933878145508134
000100 d8 00 99 4b 14 2f d3 3f 37 04 79 83 72 ca c3 bf
       0.2997484911211479 -0.1546157018620151
000110 f0 c3 a0 1c 4b d1 a7 bf 40 11 9d a6 87 07 a1 3f
       -0.04651865696394697 0.03326057347161049
000120 1c a5 b9 38 f9 db c4 3f 38 12 32 df b2 55 d9 3f
       0.16296305913719145 0.39585563465542206
000130 90 2c 19 ba 9e 82 d3 3f d4 08 97 3f 8c 6f b7 bf
       0.30484741376557967 -0.09154583504190167
000140 06 7f a8 12 6e 90 c6 bf 20 67 fb 2f e4 f5 aa 3f
       -0.17628265296024653 0.05265725217550554
000150 f0 d0 de 96 46 9a be 3f 59 8f 9c 4d 84 cc e0 3f
       0.11954156096800594 0.5249654308176829
000160 60 49 95 a8 c1 63 d1 3f 7c f3 52 b8 28 72 b5 bf
       0.2717136522598107 -0.08377317905519804
000170 00 6e 5d e2 bd 2a c6 bf f8 ea 9f ef c6 66 aa 3f
       -0.17317937424637364 0.0515653769980044
000180 70 a6 14 aa 93 71 c1 3f 88 2a 96 32 7f f6 e5 3f
       0.1362785892936702 0.6863399494189517
000190 40 36 b2 23 4d b2 b3 bf 00 54 27 83 a0 e6 b4 bf
       -0.07693941232192802 -0.0816440887641221
0001a0 00 ba cd 39 af 08 88 3f 00 95 91 07 55 2f a9 3f
       0.0117353143229737 0.049189240621482
0001b0 80 68 a5 e4 83 d5 e6 3f a0 31 c8 f9 b5 02 ca 3f
       0.7135638681168217 0.20320772835146972
0001c0 20 be b9 71 1e ee bc bf 40 dc 77 41 82 f9 b9 bf
       -0.11300840641501297 -0.10146345232338749
0001d0 40 5f c3 2d f3 25 a0 bf d0 97 c6 71 6b 7c ad 3f
       -0.031539534889530874 0.0575898720156115
0001e0 2b 47 5a 4f d5 27 ea 3f 00 43 ff 27 b0 41 ba bf
       0.817362456308023 -0.10256482101909725
0001f0 a0 2e 19 4a 95 b6 bc bf 00 88 ce cd a7 7e a4 bf
       -0.11216099795381718 -0.04002880465783676
000200 00 54 f8 95 6b 8b b1 3f a0 28 36 fb 53 ba ae 3f
       0.06853363429429749 0.06001532022044498
000210 1f 1b 59 ba c5 3d e7 3f 90 70 78 c9 30 b1 cd 3f
       0.7262905730829948 0.23196992719102072
000220 70 ce 0d 4f b6 28 c0 bf 18 ab 4f f2 0a f1 ca bf
       -0.12624243602805363 -0.2104810412559679
000230 c0 cd a9 ed b1 3a b2 bf f8 47 59 21 9e dc b0 3f
       -0.07120811512304837 0.06586635889223647
000240 ca 18 b7 18 84 dc e8 3f fe f4 f4 67 d4 ba d5 bf
       0.7769184572905712 -0.3395281806186431
000250 28 22 9d c9 5e f6 c6 bf 44 00 00 69 3c 4a ce 3f
       -0.17939362377571055 0.2366405022330601
000260 40 29 ee 43 7d 3f ae 3f 80 22 ec 95 d8 af 9e 3f
       0.05907813505389692 0.029967674398934552
000270 4c 15 a8 a5 72 83 e9 3f d6 0d e1 62 17 7d d4 bf
       0.797295878932951 -0.3201349702469235
000280 00 b4 de 82 54 b2 c3 bf f4 c4 40 a7 e4 6f c7 3f
       -0.15387970342763424 0.18310220877314232
000290 60 f9 8a 28 f7 97 a7 3f 60 11 20 bd 0b 3b 93 3f
       0.0460812794676595 0.01877992955998431
0002a0 d4 3e 23 1d 1a a6 e8 3f c0 d7 0e f5 c0 1b d2 3f
       0.7702761239142668 0.282943953813966
0002b0 c0 2d 17 43 29 cc cb bf 60 f4 79 c4 1f 3b c5 bf
       -0.21716800475983966 -0.1658668240887975
0002c0 b8 bb e8 0e 4f 32 a7 3f 80 ab 72 73 cd 3b 9b 3f
       0.045305700845680474 0.02659531609667054
0002d0 d8 2c 2e 5c c2 19 eb 3f 98 00 77 1c 10 7d c2 3f
       0.8468944359205137 0.14444161786923781
0002e0 e0 03 94 2a 65 b9 c5 bf a0 2e 41 75 f5 a3 cd bf
       -0.16972031191838166 -0.23156612611125116
0002f0 c0 01 f0 ce e8 60 a4 3f 00 21 3f fe eb 3e 9e 3f
       0.039801860104492714 0.029536902802449028
000300 de 85 6c e3 57 90 ec 3f c0 e8 93 8c 82 a9 ca 3f
       0.8926200334428207 0.20829803337239206
000310 20 4b 77 97 46 20 c4 bf 10 e2 a0 97 67 bd b9 bf
       -0.15723497768211647 -0.10054633571497384
000320 20 f5 27 24 2b 92 c5 bf e0 f4 f2 9c ac 4e b0 3f
       -0.16852320924218933 0.06370047408832447
000330 f2 7e 42 0c 72 97 ed 3f 30 42 71 60 b7 f7 c1 bf
       0.9247369994590982 -0.14037220200636247
000340 40 68 de af f6 e9 ce bf 80 c4 3d 95 8b b6 c5 3f
       -0.24151500308363616 0.16963333880588394
000350 80 c4 ad da e2 f9 af bf 80 88 2d 7c ab d2 a4 3f
       -0.06245335502070137 0.040669783504896806
000360 70 a4 01 1e 17 ae ed 3f 00 8f c0 6b e0 ae c1 bf
       0.9275012575209427 -0.13814931165062916
000370 50 21 47 5b 61 2a d0 bf 40 36 4e 57 42 4a c6 3f
       -0.25258668817379704 0.174141209249159
000380 c0 12 64 15 bc 79 b0 bf 40 52 5b b5 c2 c4 a7 3f
       -0.06435752413023987 0.04642303909136958
000390 10 2b 30 d7 92 c5 ed 3f 80 a8 a9 a0 c9 a1 bc bf
       0.9303678706067746 -0.11184368297986857
0003a0 78 48 aa ff 89 d6 cb bf a0 ad ac 0f 1f 9b cc bf
       -0.21748471244478984 -0.22348392739637024
0003b0 90 36 8c 65 e5 1f cc 3f c0 02 6a 0b 14 e7 ab 3f
       0.21972339113601835 0.05449736251194315
0003c0 88 fd a7 c5 bd ab ed 3f 80 9b 99 89 09 8c bf bf
       0.9272145138237855 -0.1232305489480563
0003d0 c0 e8 8f 08 2d 87 ce bf 00 bc 8d 54 0b ac c5 bf
       -0.23850024145196436 -0.16931287411304652
0003e0 e0 e5 e8 06 2f 77 cb 3f 00 36 62 d0 d8 31 a3 3f
       0.2145746978510905 0.037489676892715096
0003f0 e0 fd ea 3d 3d 29 ee 3f 40 66 6c b8 0b cf bc bf
       0.9425340852102941 -0.11253426792645715
000400 e0 c5 ba 0f 4a c0 c8 bf d0 5d 08 14 bc c0 c6 3f
       -0.19336820381208408 0.1777567956748798
000410 64 d7 4e 63 ea 99 b0 bf e0 c8 7f a7 40 4c aa 3f
       -0.06484856533537947 0.0513630108324763
000420 68 88 a3 e7 6c 4e ee 3f 00 d6 9b 59 76 06 bd bf
       0.9470734142489734 -0.11337985694611774
000430 20 fb 99 03 c3 71 ca bf 80 5c a8 5e 0f 7e c8 3f
       -0.206596733816661 0.19134704706150174
000440 10 dd e4 b3 95 05 b3 bf 40 fa 48 40 07 ee ae 3f
       -0.07430396692221941 0.06040976199846115
000450 20 91 62 02 ef 1b ee 3f 80 be fb d3 02 53 be bf
       0.9409098669607694 -0.11845414805770282
000460 a0 34 af 0a 87 08 cd bf 20 8b 10 43 89 5c c9 3f
       -0.2268227388543993 0.19813648008956708
000470 b1 b7 ef c2 6d 1c b3 bf 80 ff fb a9 79 48 ac 3f
       -0.07465253838719722 0.055240442276043744
000480 04 1e 0c 04 69 5a ed 3f 12 6e dc ad aa c5 cc bf
       0.9172864035653565 -0.2247823094302111
000490 c0 39 db ff a3 a9 d2 bf 18 06 98 ac 09 59 d0 3f
       -0.2916040419194381 0.2554344354140041
0004a0 b0 c5 14 6e 82 d3 b7 bf 40 54 d6 23 1b 26 af 3f
       -0.09307112872627132 0.06083760082689382
0004b0 d4 55 de 1b 61 57 ed 3f c3 85 24 87 f2 46 cd bf
       0.9169164223009667 -0.22872764204752913
0004c0 00 af 90 e0 fb 8e d2 bf 18 e3 5c 0f c5 69 d0 3f
       -0.28997704439346705 0.2564556741740929
0004d0 60 0d 4f 37 3e 92 b6 bf 40 fe b3 38 2f ae ae 3f
       -0.08816899156868407 0.05992267195869916
0004e0 2c 96 7a 90 38 c9 ed 3f 80 88 28 c0 04 63 bd bf
       0.9308131048061958 -0.11479215327611492
0004f0 60 b8 1d 8c ef a5 cd bf c0 fb 52 0e af 33 c2 3f
       -0.23162645665746862 0.14220226478025033
000500 e0 ef c9 31 0f f1 b5 bf 00 64 02 08 98 49 9c 3f
       -0.08570952382609631 0.027624488343096942
000510 2e 58 8c 2d 1f 4e ec 3f d0 d1 aa 16 eb bb d1 bf
       0.8845363511670763 -0.2770946236953735
000520 60 7f a4 30 ac cd c2 3f c0 b9 e1 d8 e3 5e c1 bf
       0.14690163016438884 -0.13570831384590853
000530 ac 44 0d b1 3f e2 b2 3f 00 81 cb a2 17 b1 83 3f
       0.07376478264383718 0.009615120559317791
000540 28 8f e0 84 3b 30 ec 3f d0 e8 01 69 f3 b5 d1 bf
       0.8808877558953769 -0.27673039679178846
000550 80 09 f5 f1 43 7d c3 3f 40 b0 53 12 d0 65 c2 bf
       0.15226029695811505 -0.14373207945698319
000560 c8 27 37 de e1 3d b3 3f 00 17 80 b8 43 e2 8c 3f
       0.0751629989164534 0.014103440349582552
000570 aa bc 0c 7b 84 28 ec 3f 38 98 93 d0 6e fe d1 bf
       0.8799459842029098 -0.28115434998324274
000580 20 6e 54 2c 2a ef c3 3f 88 d6 14 1b 02 7a c2 bf
       0.15573622860471037 -0.14434839556058798
000590 90 fb 52 de 80 8b b1 3f 00 83 0e 84 91 45 93 3f
       0.06853490283809394 0.018820069966412056
0005a0 d0 c5 b0 e0 44 00 eb 3f 70 3d 0c 92 85 18 c3 3f
       0.843782843445462 0.1491858447193226
0005b0 a0 5e 1e ca b1 fc d2 bf c0 8a 59 68 78 d3 c1 3f
       -0.2966732477011451 0.1392660626907709
0005c0 c0 ba 38 e4 ab cd be bf 00 49 30 b6 65 44 a5 3f
       -0.12032579728905102 0.04153745507223228
0005d0 b4 4e 4f 89 ba cc ea 3f 20 fc 31 6b 53 2d c3 3f
       0.8374912912208488 0.1498207353033374
0005e0 30 bf 43 04 50 07 d3 bf 60 a5 29 e0 52 76 c2 3f
       -0.29732132355182994 0.14423595376437515
0005f0 00 7c ef 07 c6 92 bf bf 40 af 3e c5 a5 f3 a6 3f
       -0.1233333367704148 0.04482763321661176
000600 24 55 11 54 35 86 ec 3f d0 3c d2 9c a1 ff d4 bf
       0.8913828508326884 -0.32810249628614674
000610 40 78 db 47 b8 c5 be bf 88 a5 6f dc 5a c2 cc 3f
       -0.12020446543053342 0.22468124164087677
000620 90 3f 7b ea 1c 09 b7 bf 40 81 27 ec 63 aa af 3f
       -0.0899828026260805 0.061846849992209574
000630 14 d9 4e ac da 69 ec 3f d8 a1 af b0 68 b0 d4 bf
       0.8879216542616484 -0.3232671475839459
000640 a0 43 2f f8 22 02 c0 bf 90 af ea e6 9b 79 cd 3f
       -0.12506520384206699 0.23027371192199242
000650 20 f1 49 8e 03 28 b7 bf 10 1f 25 dd bd 32 b0 3f
       -0.09045431350563549 0.06327425622032146
000660 24 5a 00 74 8a 61 ed 3f 00 5a b1 f7 94 32 b2 bf
       0.9181568399097313 -0.07108431861102105
000670 20 ea 32 90 44 07 ca bf 00 0e 4d 85 4f 70 b7 bf
       -0.20334679642640285 -0.09155747417849369
000680 c0 d0 49 cb 2c 91 a8 bf c0 83 95 3f ab f3 b9 3f
       -0.04798259717509401 0.10137434294075742
000690 70 02 c2 fb f4 2c eb 3f 40 2e 8d 52 53 c9 cd bf
       0.8492379109521391 -0.2327064660151894
0006a0 f0 4a a8 72 31 71 c9 bf e0 e1 b0 d0 c2 d1 c7 3f
       -0.19876688097482242 0.18608889760959269
0006b0 80 70 04 f2 d5 85 ba bf 40 ed 58 ab 88 65 a9 3f
       -0.10360467108370308 0.049602766910960217
0006c0 64 83 a1 04 ef 22 eb 3f a0 a3 94 1b ed 82 ce bf
       0.8480143633315547 -0.23837055060110135
0006d0 80 af de 67 be d8 c8 bf e0 ff b8 82 03 8f c8 3f
       -0.1941144950081899 0.19186443217222315
0006e0 a0 d2 bd 32 99 ea bb bf 80 08 9e 3f 66 c6 a6 3f
       -0.1090484379654506 0.0444824173601015
0006f0 aa 47 28 24 f9 46 ec 3f 10 3b ad 67 d2 16 c1 bf
       0.8836637216756931 -0.1335089689477731
000700 70 8b 83 ac f4 6d d2 bf 20 71 2e 0a 74 89 c8 bf
       -0.28796116683059036 -0.19169474122180308
000710 20 20 ca 8a de 19 ca 3f 00 1b ff 83 5f 01 a7 3f
       0.20391446854432704 0.044932350981573776
000720 e2 a7 de 3e cc 4b ec 3f 68 0d 22 89 48 d6 c2 bf
       0.8842526653218068 -0.14716440864513491
000730 80 a8 5e 07 c5 14 d2 bf c0 cb de c2 e5 e5 c7 bf
       -0.28251767844870557 -0.18670341506148525
000740 40 fb de 1f 0c 49 cb 3f 00 b9 40 98 24 82 a4 3f
       0.2131667285557004 0.04005541189722983
000750 6a 88 1a 7f b0 2e ec 3f 38 90 b0 91 dd 79 c3 bf
       0.8806993944638297 -0.15215654004816925
000760 30 61 bb 78 49 37 d2 bf 20 42 34 cc 62 a6 c6 bf
       -0.2846244505904165 -0.17695269556908588
000770 40 61 69 3b 85 f5 ca 3f 40 5d 9e 25 9a c4 a4 3f
       0.2106176891418361 0.04056245526515534
000780 5e 4a 3d 2c b8 f9 eb 3f 60 99 45 5d c2 39 bf bf
       0.874233328251943 -0.12197508599419882
000790 e0 9c 7d 6d cd 90 d5 bf 80 4c fe ac 51 cd c7 3f
       -0.33696304027985313 0.1859533400243869
0007a0 80 b2 74 a7 28 6f b8 bf c0 bd 63 92 57 b0 a3 3f
       -0.09544614876058155 0.03845475828154177
0007b0 1a f3 a1 7f 3f 95 ea 3f 70 c6 ef fc b9 44 d4 bf
       0.8307187550377393 -0.3166947336277195
0007c0 20 b5 2d 30 9a 01 cd 3f b0 4c 9f 1a a3 31 c4 bf
       0.2266113982435991 -0.15776480483927946
0007d0 e0 ce ca 5b de b9 af 3f 80 a9 13 a8 96 41 97 3f
       0.06196493978987205 0.02271113777980238
0007e0 28 49 a5 37 b8 7c ea 3f 00 29 b5 01 49 85 ce bf
       0.8277245604352048 -0.2384425409639519
0007f0 40 c0 13 32 04 94 cc bf 60 b5 43 a4 7d db ce 3f
       -0.22326710171864939 0.241073327262181
